…
    "Y_train = Yn[:int(Y.shape[0]*trainPercent),:]\n",
    "Y_test = Yn[int(Y.shape[0]*trainPercent):,:]"
   ]
  },
  {
   "cell_type": "code",
   "execution_count": 130,
   "metadata": {
    "lines_to_next_cell": 0,
    "scrolled": true
   },
   "outputs": [
    {
     "name": "stdout",
     "output_type": "stream",
     "text": [
      "Model: \"sequential_12\"\n",
      "_________________________________________________________________\n",
      "Layer (type)                 Output Shape              Param #   \n",
      "=================================================================\n",
      "conv2d_141 (Conv2D)          (None, 55, 55, 96)        34944     \n",
      "_________________________________________________________________\n",
      "activation_117 (Activation)  (None, 55, 55, 96)        0         \n",
      "_________________________________________________________________\n",
      "max_pooling2d_34 (MaxPooling (None, 27, 27, 96)        0         \n",
      "_________________________________________________________________\n",
      "conv2d_142 (Conv2D)          (None, 27, 27, 256)       614656    \n",
      "_________________________________________________________________\n",
      "activation_118 (Activation)  (None, 27, 27, 256)       0         \n",
      "_________________________________________________________________\n",
      "max_pooling2d_35 (MaxPooling (None, 13, 13, 256)       0         \n",
      "_________________________________________________________________\n",
      "conv2d_143 (Conv2D)          (None, 13, 13, 384)       885120    \n",
      "_________________________________________________________________\n",
      "activation_119 (Activation)  (None, 13, 13, 384)       0         \n",
      "_________________________________________________________________\n",
      "conv2d_144 (Conv2D)          (None, 13, 13, 384)       1327488   \n",
      "_________________________________________________________________\n",
      "activation_120 (Activation)  (None, 13, 13, 384)       0         \n",
      "_________________________________________________________________\n",
      "conv2d_145 (Conv2D)          (None, 13, 13, 256)       884992    \n",
      "_________________________________________________________________\n",
      "activation_121 (Activation)  (None, 13, 13, 256)       0         \n",
      "_________________________________________________________________\n",
      "max_pooling2d_36 (MaxPooling (None, 6, 6, 256)         0         \n",
      "_________________________________________________________________\n",
      "dropout_68 (Dropout)         (None, 6, 6, 256)         0         \n",
      "_________________________________________________________________\n",
      "flatten_29 (Flatten)         (None, 9216)              0         \n",
      "_________________________________________________________________\n",
      "dense_113 (Dense)            (None, 4096)              37752832  \n",
      "_________________________________________________________________\n",
      "activation_122 (Activation)  (None, 4096)              0         \n",
      "_________________________________________________________________\n",
      "dropout_69 (Dropout)         (None, 4096)              0         \n",
      "_________________________________________________________________\n",
      "dense_114 (Dense)            (None, 4096)              16781312  \n",
      "_________________________________________________________________\n",
      "activation_123 (Activation)  (None, 4096)              0         \n",
      "_________________________________________________________________\n",
      "dropout_70 (Dropout)         (None, 4096)              0         \n",
      "_________________________________________________________________\n",
      "dense_115 (Dense)            (None, 1000)              4097000   \n",
      "_________________________________________________________________\n",
      "activation_124 (Activation)  (None, 1000)              0         \n",
      "_________________________________________________________________\n",
      "dense_116 (Dense)            (None, 3)                 3003      \n",
      "_________________________________________________________________\n",
      "activation_125 (Activation)  (None, 3)                 0         \n",
      "=================================================================\n",
      "Total params: 62,381,347\n",
      "Trainable params: 62,381,347\n",
      "Non-trainable params: 0\n",
      "_________________________________________________________________\n",
      "Epoch 1/1000\n",
      " - 2s - loss: 0.2232 - recall_16: 0.0000e+00\n",
      "Epoch 2/1000\n",
      " - 1s - loss: 0.2215 - recall_16: 0.0000e+00\n",
…
