…
    "Y_train = Y[:int(Y.shape[0]*trainPercent),:]\n",
    "Y_test = Y[int(Y.shape[0]*trainPercent):,:]"
   ]
  },
  {
   "cell_type": "code",
   "execution_count": 78,
   "metadata": {
    "lines_to_next_cell": 0,
    "scrolled": true
   },
   "outputs": [
    {
     "name": "stdout",
     "output_type": "stream",
     "text": [
      "Model: \"sequential_12\"\n",
      "_________________________________________________________________\n",
      "Layer (type)                 Output Shape              Param #   \n",
      "=================================================================\n",
      "conv2d_28 (Conv2D)           (None, 30, 30, 6)         60        \n",
      "_________________________________________________________________\n",
      "average_pooling2d_21 (Averag (None, 15, 15, 6)         0         \n",
      "_________________________________________________________________\n",
      "conv2d_29 (Conv2D)           (None, 13, 13, 16)        880       \n",
      "_________________________________________________________________\n",
      "average_pooling2d_22 (Averag (None, 6, 6, 16)          0         \n",
      "_________________________________________________________________\n",
      "flatten_12 (Flatten)         (None, 576)               0         \n",
      "_________________________________________________________________\n",
      "dense_35 (Dense)             (None, 120)               69240     \n",
      "_________________________________________________________________\n",
      "dense_36 (Dense)             (None, 84)                10164     \n",
      "_________________________________________________________________\n",
      "dense_37 (Dense)             (None, 43)                3655      \n",
      "=================================================================\n",
      "Total params: 83,999\n",
      "Trainable params: 83,999\n",
      "Non-trainable params: 0\n",
      "_________________________________________________________________\n",
      "Epoch 1/1000\n",
      " - 1s - loss: 0.0204 - accuracy: 0.2258\n",
      "Epoch 2/1000\n",
      " - 1s - loss: 0.0131 - accuracy: 0.5725\n",
…
